…
W0730 14:42:28.370960 139713236703104 deprecation.py:323] From /usr/local/lib/python3.6/dist-packages/tensorflow/python/ops/math_grad.py:1250: add_dispatch_support.<locals>.wrapper (from tensorflow.python.ops.array_ops) is deprecated and will be removed in a future version.
Instructions for updating:
Use tf.where in 2.0, which has the same broadcast rule as np.where
__________________________________________________________________________________________________
Layer (type)                    Output Shape         Param #     Connected to                     
==================================================================================================
input_2 (InputLayer)            (None, 32, 32, 3)    0                                            
__________________________________________________________________________________________________
conv2d_34 (Conv2D)              (None, 13, 13, 64)   9472        input_2[0][0]                    
__________________________________________________________________________________________________
batch_normalization_29 (BatchNo (None, 13, 13, 64)   256         conv2d_34[0][0]                  
__________________________________________________________________________________________________
max_pooling2d_2 (MaxPooling2D)  (None, 6, 6, 64)     0           batch_normalization_29[0][0]     
__________________________________________________________________________________________________
conv2d_35 (Conv2D)              (None, 6, 6, 64)     36928       max_pooling2d_2[0][0]            
__________________________________________________________________________________________________
batch_normalization_30 (BatchNo (None, 6, 6, 64)     256         conv2d_35[0][0]                  
__________________________________________________________________________________________________
conv2d_36 (Conv2D)              (None, 6, 6, 64)     36928       batch_normalization_30[0][0]     
__________________________________________________________________________________________________
add_14 (Add)                    (None, 6, 6, 64)     0           conv2d_36[0][0]                  
                                                                 max_pooling2d_2[0][0]            
__________________________________________________________________________________________________
conv2d_37 (Conv2D)              (None, 6, 6, 64)     36928       add_14[0][0]                     
__________________________________________________________________________________________________
batch_normalization_31 (BatchNo (None, 6, 6, 64)     256         conv2d_37[0][0]                  
__________________________________________________________________________________________________
conv2d_38 (Conv2D)              (None, 6, 6, 64)     36928       batch_normalization_31[0][0]     
__________________________________________________________________________________________________
add_15 (Add)                    (None, 6, 6, 64)     0           conv2d_38[0][0]                  
                                                                 add_14[0][0]                     
__________________________________________________________________________________________________
conv2d_39 (Conv2D)              (None, 6, 6, 64)     36928       add_15[0][0]                     
__________________________________________________________________________________________________
batch_normalization_32 (BatchNo (None, 6, 6, 64)     256         conv2d_39[0][0]                  
__________________________________________________________________________________________________
conv2d_40 (Conv2D)              (None, 6, 6, 64)     36928       batch_normalization_32[0][0]     
__________________________________________________________________________________________________
add_16 (Add)                    (None, 6, 6, 64)     0           conv2d_40[0][0]                  
                                                                 add_15[0][0]                     
__________________________________________________________________________________________________
conv2d_41 (Conv2D)              (None, 3, 3, 128)    73856       add_16[0][0]                     
__________________________________________________________________________________________________
batch_normalization_33 (BatchNo (None, 3, 3, 128)    512         conv2d_41[0][0]                  
__________________________________________________________________________________________________
conv2d_42 (Conv2D)              (None, 3, 3, 128)    147584      batch_normalization_33[0][0]     
__________________________________________________________________________________________________
batch_normalization_34 (BatchNo (None, 3, 3, 128)    512         conv2d_42[0][0]                  
__________________________________________________________________________________________________
conv2d_43 (Conv2D)              (None, 3, 3, 128)    147584      batch_normalization_34[0][0]     
__________________________________________________________________________________________________
batch_normalization_35 (BatchNo (None, 3, 3, 128)    512         conv2d_43[0][0]                  
__________________________________________________________________________________________________
conv2d_44 (Conv2D)              (None, 3, 3, 128)    147584      batch_normalization_35[0][0]     
__________________________________________________________________________________________________
add_17 (Add)                    (None, 3, 3, 128)    0           conv2d_44[0][0]                  
                                                                 batch_normalization_34[0][0]     
__________________________________________________________________________________________________
conv2d_45 (Conv2D)              (None, 3, 3, 128)    147584      add_17[0][0]                     
__________________________________________________________________________________________________
batch_normalization_36 (BatchNo (None, 3, 3, 128)    512         conv2d_45[0][0]                  
__________________________________________________________________________________________________
conv2d_46 (Conv2D)              (None, 3, 3, 128)    147584      batch_normalization_36[0][0]     
__________________________________________________________________________________________________
batch_normalization_37 (BatchNo (None, 3, 3, 128)    512         conv2d_46[0][0]                  
__________________________________________________________________________________________________
add_18 (Add)                    (None, 3, 3, 128)    0           batch_normalization_37[0][0]     
                                                                 add_17[0][0]                     
__________________________________________________________________________________________________
conv2d_47 (Conv2D)              (None, 3, 3, 128)    147584      add_18[0][0]                     
__________________________________________________________________________________________________
batch_normalization_38 (BatchNo (None, 3, 3, 128)    512         conv2d_47[0][0]                  
__________________________________________________________________________________________________
conv2d_48 (Conv2D)              (None, 3, 3, 128)    147584      batch_normalization_38[0][0]     
__________________________________________________________________________________________________
batch_normalization_39 (BatchNo (None, 3, 3, 128)    512         conv2d_48[0][0]                  
__________________________________________________________________________________________________
add_19 (Add)                    (None, 3, 3, 128)    0           batch_normalization_39[0][0]     
                                                                 conv2d_47[0][0]                  
__________________________________________________________________________________________________
conv2d_49 (Conv2D)              (None, 2, 2, 256)    295168      add_19[0][0]                     
__________________________________________________________________________________________________
batch_normalization_40 (BatchNo (None, 2, 2, 256)    1024        conv2d_49[0][0]                  
__________________________________________________________________________________________________
conv2d_50 (Conv2D)              (None, 2, 2, 256)    590080      batch_normalization_40[0][0]     
__________________________________________________________________________________________________
batch_normalization_41 (BatchNo (None, 2, 2, 256)    1024        conv2d_50[0][0]                  
__________________________________________________________________________________________________
conv2d_51 (Conv2D)              (None, 2, 2, 256)    590080      batch_normalization_41[0][0]     
__________________________________________________________________________________________________
batch_normalization_42 (BatchNo (None, 2, 2, 256)    1024        conv2d_51[0][0]                  
__________________________________________________________________________________________________
conv2d_52 (Conv2D)              (None, 2, 2, 256)    590080      batch_normalization_42[0][0]     
__________________________________________________________________________________________________
batch_normalization_43 (BatchNo (None, 2, 2, 256)    1024        conv2d_52[0][0]                  
__________________________________________________________________________________________________
add_20 (Add)                    (None, 2, 2, 256)    0           batch_normalization_41[0][0]     
                                                                 batch_normalization_43[0][0]     
__________________________________________________________________________________________________
conv2d_53 (Conv2D)              (None, 2, 2, 256)    590080      add_20[0][0]                     
__________________________________________________________________________________________________
batch_normalization_44 (BatchNo (None, 2, 2, 256)    1024        conv2d_53[0][0]                  
__________________________________________________________________________________________________
conv2d_54 (Conv2D)              (None, 2, 2, 256)    590080      batch_normalization_44[0][0]     
__________________________________________________________________________________________________
batch_normalization_45 (BatchNo (None, 2, 2, 256)    1024        conv2d_54[0][0]                  
__________________________________________________________________________________________________
add_21 (Add)                    (None, 2, 2, 256)    0           add_20[0][0]                     
                                                                 batch_normalization_45[0][0]     
__________________________________________________________________________________________________
conv2d_55 (Conv2D)              (None, 2, 2, 256)    590080      add_21[0][0]                     
__________________________________________________________________________________________________
batch_normalization_46 (BatchNo (None, 2, 2, 256)    1024        conv2d_55[0][0]                  
__________________________________________________________________________________________________
conv2d_56 (Conv2D)              (None, 2, 2, 256)    590080      batch_normalization_46[0][0]     
__________________________________________________________________________________________________
batch_normalization_47 (BatchNo (None, 2, 2, 256)    1024        conv2d_56[0][0]                  
__________________________________________________________________________________________________
add_22 (Add)                    (None, 2, 2, 256)    0           add_21[0][0]                     
                                                                 batch_normalization_47[0][0]     
__________________________________________________________________________________________________
conv2d_57 (Conv2D)              (None, 2, 2, 256)    590080      add_22[0][0]                     
__________________________________________________________________________________________________
batch_normalization_48 (BatchNo (None, 2, 2, 256)    1024        conv2d_57[0][0]                  
__________________________________________________________________________________________________
conv2d_58 (Conv2D)              (None, 2, 2, 256)    590080      batch_normalization_48[0][0]     
__________________________________________________________________________________________________
batch_normalization_49 (BatchNo (None, 2, 2, 256)    1024        conv2d_58[0][0]                  
__________________________________________________________________________________________________
add_23 (Add)                    (None, 2, 2, 256)    0           add_22[0][0]                     
                                                                 batch_normalization_49[0][0]     
__________________________________________________________________________________________________
conv2d_59 (Conv2D)              (None, 1, 1, 512)    1180160     add_23[0][0]                     
__________________________________________________________________________________________________
batch_normalization_50 (BatchNo (None, 1, 1, 512)    2048        conv2d_59[0][0]                  
__________________________________________________________________________________________________
conv2d_60 (Conv2D)              (None, 1, 1, 512)    2359808     batch_normalization_50[0][0]     
__________________________________________________________________________________________________
batch_normalization_51 (BatchNo (None, 1, 1, 512)    2048        conv2d_60[0][0]                  
__________________________________________________________________________________________________
conv2d_61 (Conv2D)              (None, 1, 1, 512)    2359808     batch_normalization_51[0][0]     
__________________________________________________________________________________________________
batch_normalization_52 (BatchNo (None, 1, 1, 512)    2048        conv2d_61[0][0]                  
__________________________________________________________________________________________________
conv2d_62 (Conv2D)              (None, 1, 1, 512)    2359808     batch_normalization_52[0][0]     
__________________________________________________________________________________________________
add_24 (Add)                    (None, 1, 1, 512)    0           conv2d_60[0][0]                  
                                                                 conv2d_62[0][0]                  
__________________________________________________________________________________________________
conv2d_63 (Conv2D)              (None, 1, 1, 512)    2359808     add_24[0][0]                     
__________________________________________________________________________________________________
batch_normalization_53 (BatchNo (None, 1, 1, 512)    2048        conv2d_63[0][0]                  
__________________________________________________________________________________________________
conv2d_64 (Conv2D)              (None, 1, 1, 512)    2359808     batch_normalization_53[0][0]     
__________________________________________________________________________________________________
batch_normalization_54 (BatchNo (None, 1, 1, 512)    2048        conv2d_64[0][0]                  
__________________________________________________________________________________________________
add_25 (Add)                    (None, 1, 1, 512)    0           add_24[0][0]                     
                                                                 batch_normalization_54[0][0]     
__________________________________________________________________________________________________
conv2d_65 (Conv2D)              (None, 1, 1, 512)    2359808     add_25[0][0]                     
__________________________________________________________________________________________________
batch_normalization_55 (BatchNo (None, 1, 1, 512)    2048        conv2d_65[0][0]                  
__________________________________________________________________________________________________
conv2d_66 (Conv2D)              (None, 1, 1, 512)    2359808     batch_normalization_55[0][0]     
__________________________________________________________________________________________________
batch_normalization_56 (BatchNo (None, 1, 1, 512)    2048        conv2d_66[0][0]                  
__________________________________________________________________________________________________
add_26 (Add)                    (None, 1, 1, 512)    0           add_25[0][0]                     
                                                                 batch_normalization_56[0][0]     
__________________________________________________________________________________________________
flatten_2 (Flatten)             (None, 512)          0           add_26[0][0]                     
__________________________________________________________________________________________________
dense_2 (Dense)                 (None, 10)           5130        flatten_2[0][0]                  
==================================================================================================
Total params: 24,677,002
Trainable params: 24,662,410
Non-trainable params: 14,592
__________________________________________________________________________________________________
Epoch 1/100
1407/1406 [==============================] - 237s 169ms/step - loss: 2.6581 - acc: 0.1756 - val_loss: 3.5395 - val_acc: 0.1244
…
