#resnet_transfer.py

__________________________________________________________________________________________________
Layer (type)                    Output Shape         Param #     Connected to                     
==================================================================================================
input_11 (InputLayer)           (None, 32, 32, 3)    0                                            
__________________________________________________________________________________________________
conv2d_47 (Conv2D)              (None, 13, 13, 64)   9472        input_11[0][0]                   
__________________________________________________________________________________________________
activation_6 (Activation)       (None, 13, 13, 64)   0           conv2d_47[0][0]                  
__________________________________________________________________________________________________
batch_normalization_28 (BatchNo (None, 13, 13, 64)   256         activation_6[0][0]               
__________________________________________________________________________________________________
max_pooling2d_11 (MaxPooling2D) (None, 6, 6, 64)     0           batch_normalization_28[0][0]     
__________________________________________________________________________________________________
conv2d_48 (Conv2D)              (None, 6, 6, 64)     36928       max_pooling2d_11[0][0]           
__________________________________________________________________________________________________
activation_7 (Activation)       (None, 6, 6, 64)     0           conv2d_48[0][0]                  
__________________________________________________________________________________________________
batch_normalization_29 (BatchNo (None, 6, 6, 64)     256         activation_7[0][0]               
__________________________________________________________________________________________________
conv2d_49 (Conv2D)              (None, 6, 6, 64)     36928       batch_normalization_29[0][0]     
__________________________________________________________________________________________________
add_18 (Add)                    (None, 6, 6, 64)     0           conv2d_49[0][0]                  
                                                                 max_pooling2d_11[0][0]           
__________________________________________________________________________________________________
conv2d_50 (Conv2D)              (None, 6, 6, 64)     36928       add_18[0][0]                     
__________________________________________________________________________________________________
activation_8 (Activation)       (None, 6, 6, 64)     0           conv2d_50[0][0]                  
__________________________________________________________________________________________________
batch_normalization_30 (BatchNo (None, 6, 6, 64)     256         activation_8[0][0]               
__________________________________________________________________________________________________
conv2d_51 (Conv2D)              (None, 6, 6, 64)     36928       batch_normalization_30[0][0]     
__________________________________________________________________________________________________
add_19 (Add)                    (None, 6, 6, 64)     0           conv2d_51[0][0]                  
                                                                 add_18[0][0]                     
__________________________________________________________________________________________________
conv2d_52 (Conv2D)              (None, 6, 6, 64)     36928       add_19[0][0]                     
__________________________________________________________________________________________________
activation_9 (Activation)       (None, 6, 6, 64)     0           conv2d_52[0][0]                  
__________________________________________________________________________________________________
batch_normalization_31 (BatchNo (None, 6, 6, 64)     256         activation_9[0][0]               
__________________________________________________________________________________________________
conv2d_53 (Conv2D)              (None, 6, 6, 64)     36928       batch_normalization_31[0][0]     
__________________________________________________________________________________________________
add_20 (Add)                    (None, 6, 6, 64)     0           conv2d_53[0][0]                  
                                                                 add_19[0][0]                     
__________________________________________________________________________________________________
average_pooling2d_9 (AveragePoo (None, 2, 2, 64)     0           add_20[0][0]                     
__________________________________________________________________________________________________
flatten_9 (Flatten)             (None, 256)          0           average_pooling2d_9[0][0]        
__________________________________________________________________________________________________
dense_9 (Dense)                 (None, 10)           2570        flatten_9[0][0]                  
==================================================================================================
Total params: 234,634
Trainable params: 234,122
Non-trainable params: 512
__________________________________________________________________________________________________
Epoch 1/100
1407/1406 [==============================] - 51s 36ms/step - loss: 1.7144 - acc: 0.3897 - val_loss: 1.3357 - val_acc: 0.5200
…
